research/0_model.pth (torch, 3287 bytes, 5 tensors)

conv1.kernel f4 [27, 3, 3]
000000 35 0d b4 bd db 09 06 3d f3 98 c0 3d e1 fa 39 3c
       -0.087915815 0.032724243 0.09404173 0.011351318
000010 74 83 d8 3b 02 16 a0 3d 2a 4d ca bc a7 1a d4 3d
       0.0066074673 0.07816698 -0.024694998 0.10356646
000020 3a b7 04 bd 04 d0 6c bc 8a 13 90 3d 91 24 3e 3d
       -0.0324013 -0.014453892 0.07034977 0.04642159
000030 62 eb 8f bd 4f dc f7 bd d9 18 8b 3d 86 80 58 3c
       -0.070273176 -0.121025674 0.06791849 0.013214236
000040 26 87 b0 bd 93 17 9c bb 67 79 8e 3d 71 bf ce bd
       -0.086195275 -0.0047635525 0.069567494 -0.10095108
000050 67 a6 59 3c 85 c8 a9 bd 36 81 6b bc 37 99 ac 3d
       0.013284302 -0.08290199 -0.014374068 0.08427661
000060 03 55 6c 3d 44 ca 7f 3d 65 18 78 bc f7 e8 26 3d
       0.05769826 0.062448755 -0.015142535 0.040749516
000070 d4 32 cc 3d 3e 95 6f 3d 35 f0 da 3c 29 3d b2 bd
       0.09970632 0.058491938 0.026725868 -0.087030716
000080 89 90 ce bd fe 50 21 3c e1 62 94 3d 17 7f da 3d
       -0.10086162 0.00984597 0.07245422 0.10668772
000090 ec 0a 3c 3d 09 22 c0 bd 75 0c b8 3c 51 63 b8 bd
       0.045908853 -0.09381492 0.022466877 -0.09003318
0000a0 45 55 1e 3d 61 f4 a6 3d 08 c5 89 3c c2 8c aa bd
       0.038655538 0.0815208 0.016817585 -0.08327629
0000b0 2d 79 a8 bd fa bd a1 bd e3 1c d8 bd 4f 3c 01 3d
       -0.082262374 -0.07897563 -0.10552385 0.031551655
0000c0 26 ed 3a bd dc d2 63 bd b9 b0 cf bd 38 ef 83 bd
       -0.04563632 -0.055621013 -0.10141129 -0.06442112
0000d0 f0 b4 9e 3d dd a9 d4 bd cc f6 47 3b 15 d4 fd 3c
       0.07749355 -0.10383961 0.0030512093 0.030984918
0000e0 48 35 10 bd 70 e7 89 ba 34 fd 9c bc d7 cc 9f bd
       -0.035207063 -0.0010521244 -0.019163705 -0.07802742
0000f0 12 6d ec 3c b5 39 6e 3d 0a a0 16 3d a0 05 6d bd
       0.028860603 0.058160502 0.03677372 -0.057866693
000100 d2 24 85 3d d9 5a 10 3d da 6f c1 bd da 01 de bd
       0.065011635 0.03524289 -0.09445162 -0.10840197
000110 84 48 5a bd 98 8e d1 3c 9b 55 b9 3d e4 fa 56 3d
       -0.053291813 0.02558069 0.09049531 0.05248536
000120 14 71 d7 3d 95 c5 0e bd 5c 5f 53 bd b1 2b d6 3c
       0.10519615 -0.034856398 -0.051604614 0.02614388
000130 2f 02 d2 3c 72 5d ec 3d e8 ed 76 3d 64 06 3b bc
       0.025635807 0.11541261 0.06028548 -0.011415098
000140 8f b5 4f 3c ab 9f b3 3d cc 07 0f 3d bb 9a cd 3c
       0.012677564 0.087706886 0.034919545 0.025098195
000150 76 a6 8f bc 78 d3 27 bd 89 d4 56 bd 84 60 d0 3d
       -0.01753543 -0.040973157 -0.052448783 0.10174659
000160 fa b7 b1 bd fb 62 69 bd 4a 43 e0 bc cb 69 cf 3d
       -0.08677669 -0.05697916 -0.027375836 0.101276
000170 c6 08 b9 3a 8a bd dc 3c ae 37 d3 bd 37 e0 cf 3c
       0.0014116995 0.026945848 -0.103133544 0.025375469
000180 81 f6 ef bb 2c 57 8b bd 44 e5 7e 3d ab f4 3a bd
       -0.0073230867 -0.06803736 0.062230363 -0.04564349
000190 0f f0 d1 3d 1f 76 92 3c d7 7b 73 3d 75 bc ab 3d
       0.10250866 0.01787859 0.059444275 0.08385555
0001a0 db 53 83 3c fd 92 76 bd 81 0d cd 3c 17 e9 5b bd
       0.016031196 -0.060198773 0.025030853 -0.05368909
0001b0 9f 44 43 bd 55 9f 20 bc 6c ee 9e bd 2d 1f d2 3d
       -0.047672864 -0.009803613 -0.07760319 0.102598526
0001c0 25 74 35 bc 7d bf ee bd 00 e4 c2 3d 13 1a b5 3c
       -0.011075054 -0.11657617 0.09516144 0.02210716
0001d0 bf a7 1e bc af 08 94 3d 6c bb a3 bd 2f d3 7f 3d
       -0.0096835485 0.07228219 -0.07994732 0.06245726
0001e0 be 6d 4b bc 1d 2d 6c bc c7 3e 0d bd a9 d7 6d bd
       -0.012416301 -0.014415053 -0.034483697 -0.058066998
0001f0 3b e5 7c bd 72 dc 75 bd 3f ed b8 bc f4 8e c4 bd
       -0.06174205 -0.060024686 -0.022574065 -0.09597579
000200 a6 ab 6c bc 83 94 a6 3d 8b 1d 5e 3d 26 a7 a8 3d
       -0.014445221 0.08133795 0.054227393 0.08235006
000210 f9 1c 77 3c 28 8d e0 3d 8b e4 53 bd 36 20 d8 3c
       0.015082591 0.109644234 -0.051731627 0.026382547
000220 ba db 58 3c 6e c0 54 3d 46 b4 76 bd ca 6f b0 3d
       0.013235981 0.051941328 -0.060230516 0.08615072
000230 1e cf 8d bd 92 20 da 3d 8e ee 8c 3d 2c 8f 51 3d
       -0.0692427 0.106507435 0.06881438 0.05116193
000240 dc 52 2c bd 7a 39 ea bd 3a 34 98 3d 41 e7 97 3c
       -0.04207121 -0.11436744 0.074318364 0.018542888
000250 58 5b 5c ba 4f 08 88 bd b3 82 17 bc 27 1e d7 bc
       -0.0008405945 -0.0664221 -0.00924747 -0.026259495
000260 1a 20 d0 bd 85 2a 8f bd 0d aa 2b bb 15 25 34 3d
       -0.10162373 -0.06990532 -0.0026193887 0.043980677
000270 f2 3e 17 3d f4 86 4b 3d bb b5 aa bb af ab c3 bd
       0.036925264 0.04968925 -0.0052096522 -0.095542304
000280 c0 94 47 3b 26 1c 26 3d 8f 7b c2 3d 58 8b 08 bb
       0.0030453652 0.04055419 0.09496223 -0.0020835008
000290 84 c5 07 3d aa 99 5d bd a7 98 0c bd 26 d7 4b 3c
       0.03314735 -0.054101624 -0.034325268 0.012441432
0002a0 fd 8c 1b 3d 5c 01 17 3d bc ce 87 bd 2e d4 60 3d
       0.037976254 0.03686653 -0.06631228 0.05488985
0002b0 8f 68 93 3d b7 16 2b 3d 61 5b 43 bd 2c 23 ad 3c
       0.07197677 0.04176971 -0.047694568 0.021134935
0002c0 d2 97 4a bd ec 07 bd 3d 9b 7b 10 3d cc 58 36 bc
       -0.049461193 0.092300266 0.03527413 -0.011129569
0002d0 28 10 e7 bd c3 c3 94 3d fe 8a ac bc 2a cb 80 3d
       -0.112823784 0.07263901 -0.02106237 0.062887505
0002e0 8a 07 b4 bd 85 a0 b8 bd 6c 62 d4 bd b6 b3 88 bd
       -0.087905005 -0.09014992 -0.10370335 -0.06674902
0002f0 4c ad 7d 3b 01 c3 30 bd 59 b4 a9 3d 7a ee 08 bd
       0.003870803 -0.04315472 0.08286352 -0.033430554
000300 1f a9 a1 3d 4c fe e1 bc d0 7c 29 3d 09 cc 92 3c
       0.078935854 -0.027587079 0.041378796 0.017919557
000310 28 2d 3d bd 45 8a 61 bd c5 c1 4f bd 9b f7 46 3c
       -0.046185642 -0.055063505 -0.050721902 0.012143995
000320 94 32 be 3d c6 62 bd 3b e0 f0 f9 b9 07 f5 1e 3d
       0.09286991 0.005779597 -0.00047672447 0.038807895
000330 fc 46 b7 3c ce 24 6e bc 8c de cf bc f6 96 90 bd
       0.022372715 -0.014535142 -0.025374673 -0.070600435
000340 88 0f a0 3d c2 75 cf bd c4 7f af 3d 43 11 8f bd
       0.07815462 -0.101298824 0.08569291 -0.06985714
000350 24 8f 94 3d c0 e3 c2 3d 23 c3 d4 bc dd a6 89 3d
       0.072538644 0.09516096 -0.025971955 0.0672128
000360 6b 1e 6a bd 2f c2 fe bc 97 9d 97 3d f7 94 86 3d
       -0.057157915 -0.031098453 0.07403105 0.065713815
000370 dd 8a 39 bb dc ad 16 3d 40 39 16 bc 51 2f b6 3d
       -0.0028311529 0.0367869 -0.009168923 0.08895744
000380 5f cb b6 3d ba 64 a3 3d 36 fe 2a bd 2c 98 6f bd
       0.08925509 0.079781964 -0.04174634 -0.05849473
000390 94 87 96 bd 7e e0 cb bd ff fa 65 3d 76 68 e3 bd
       -0.07350078 -0.09954928 0.05614757 -0.11103909
0003a0 4e 3f b3 bd 8c a8 b6 3d 79 16 9d bd b6 42 9b bb
       -0.08752309 0.089188665 -0.07670302 -0.004738177
0003b0 74 04 3e bd dd ef ad 3d 8a af 9d 3d 1e 1f 8b bd
       -0.046390966 0.08493016 0.07699497 -0.067930445
0003c0 a1 05 1b 3d b0 e6 cb 3d 51 70 e8 bd
       0.037847165 0.099561095 -0.11349548

norm1.bn.weight f4 [3]
000000 bc 6c 7c 3f 58 82 7c 3f 2e 73 7c 3f
       0.98603415 0.9863639 0.9861325

norm1.bn.bias f4 [3]
000000 d7 2f 63 bc d2 56 62 bc 75 c3 63 bc
       -0.013866386 -0.013814645 -0.013901581

norm1.bn.running_mean f4 [3]
000000 93 e8 02 3d 6e 42 73 bd 5f ab fa 3c
       0.03196008 -0.059389524 0.030599294

norm1.bn.running_var f4 [3]
000000 79 47 72 3e 89 8c 74 3e b3 5e 72 3e
       0.23660077 0.23881735 0.23668937
