research/9_model.pth (torch, 3287 bytes, 5 tensors)

conv1.kernel f4 [27, 3, 3]
0	0x3a95d290	0.001143055
1	0x3a51e008	0.00080061005
2	0xbb7bbb98	-0.0038411375
3	0x384541c5	4.7029713e-05
4	0x3a71c8f7	0.00092233665
5	0xbb3eb640	-0.0029100329
6	0xbb00963f	-0.0019620804
7	0x3a8bd86e	0.001066936
8	0x3bec260a	0.007206683
9	0x3b91ab29	0.0044454527
10	0x3b735f14	0.0037135528
11	0xbbd287ef	-0.006424896
12	0xbab4d700	-0.0013796985
13	0xbbc73297	-0.006079029
14	0xbafbb288	-0.0019202987
15	0x3aa27525	0.0012394531
16	0xbbc02e39	-0.005864885
17	0x3bf05925	0.0073348456
18	0x3ada6095	0.0016660864
19	0x3b5559cd	0.0032554746
20	0xbb7a0915	-0.0038152386
21	0xb9ab11e5	-0.00032628994
22	0xbb051bee	-0.0020310837
23	0x3912f6a3	0.00014015524
24	0xb99edd08	-0.0003030079
25	0xbc3551fe	-0.011066912
26	0x3b024637	0.0019878277
27	0xbb43c26f	-0.002987053
28	0xbc09a3ef	-0.008400901
29	0xbb81a7f7	-0.0039567905
30	0xb979224e	-0.0002375927
31	0x3a667a12	0.00087919936
32	0xbb153399	-0.002276635
33	0x3a606a9f	0.00085608097
34	0x3a592c85	0.0008284527
35	0x3be8541e	0.0070901057
36	0xbb82ae24	-0.0039880443
37	0xbc1b43f8	-0.009476654
38	0xbbe0aae5	-0.0068563097
39	0x3abb7d32	0.0014304279
40	0x3adb1007	0.001671315
41	0x3b2aac28	0.0026042555
42	0x3bcaf959	0.0061942753
43	0x3c43a22a	0.011940518
44	0x3b420817	0.0029606873
45	0xbaba50a8	-0.0014214711
46	0x3d50c79e	0.05097162
47	0xba3ccb38	-0.0007201913
48	0xb82ca5e3	-4.116249e-05
49	0xbf3435d5	-0.7039464
50	0x3b25e2e6	0.0025312244
51	0x3b871613	0.0041225045
52	0xbc85c03f	-0.016327022
53	0xbb06ad81	-0.0020550194
54	0xbb872728	-0.004124541
55	0x3b940adc	0.004517896
56	0xbbcbe0a7	-0.006221849
57	0x3aaefb6b	0.0013350075
58	0xbbc2af28	-0.0059412904
59	0xbaea265a	-0.0017864213
60	0x3b702142	0.0036640917
61	0x3aaf3aaf	0.001336893
62	0x3c932200	0.017960548
63	0xbbfb1c0d	-0.007663256
64	0x3ba81bf7	0.005130287
65	0xbb8454ae	-0.004038415
66	0x3b9ee5b1	0.0048491587
67	0xbbacfde6	-0.0052792905
68	0xb9dc5e50	-0.00042031938
69	0x3b90715f	0.004408046
70	0x3b2ff67c	0.0026849797
71	0x3c2fdaa7	0.010733283
72	0xbb11e28e	-0.0022260281
73	0x3ae54db0	0.0017494466
74	0xbbb5e11e	-0.0055505177
75	0x3b10812c	0.0022049649
76	0xbb2eaba7	-0.0026652606
77	0x3a7243bf	0.00092416623
78	0x3bbe21a1	0.0058023487
79	0xbbd206bf	-0.0064094956
80	0x3c1ce10b	0.009575139
81	0x3b92ab35	0.004475976
82	0x397bdb03	0.00024018814
83	0xbb371354	-0.0027935104
84	0x3abf206c	0.0014581806
85	0x399e25a7	0.00030164162
86	0x3a23d778	0.0006250064
87	0xbaa2a3e6	-0.0012408465
88	0x3b54175e	0.003236256
89	0x3bc5a091	0.006031104
90	0x3b15b1e9	0.0022841638
91	0x3b54db6a	0.0032479414
92	0xbb871865	-0.004122781
93	0xb94a47a4	-0.0001929091
94	0xbbca6d1e	-0.0061775586
95	0xbb1865b9	-0.002325399
96	0xb75dae96	-1.3213275e-05
97	0xbb26bce6	-0.0025442182
98	0x3c0e1e3d	0.008674202
99	0x3b338b8f	0.0027396416
100	0x3b29c129	0.0025902486
101	0xbbb1d73a	-0.0054272683
102	0x38cd3812	9.785606e-05
103	0x3ad95cbe	0.0016583425
104	0xba70f668	-0.0009191991
105	0xbbc34519	-0.005959165
106	0x3b43d103	0.002987922
107	0x3bc28270	0.0059359595
108	0x3ba1caf2	0.004937523
109	0xbb5a8091	-0.0033340792
110	0xba75b42e	-0.0009372857
111	0x3a7087be	0.00091755006
112	0x3abf7a2f	0.0014608557
113	0x3aa5f448	0.0012661302
114	0x39be2420	0.0003626654
115	0x3b4d7723	0.0031351529
116	0x3b8bff18	0.004272353
117	0x3e069ba5	0.13145311
118	0xbd27de14	-0.040983275
119	0x3d7b5fcd	0.06137066
120	0xbc798ca0	-0.0152312815
121	0x3e1f13e5	0.15534933
122	0x3be17e61	0.0068815206
123	0xbbc598c4	-0.006030174
124	0xbc044996	-0.008074185
125	0x3ebbdc3d	0.36691466
126	0x3c03175d	0.008001176
127	0xbc80f072	-0.015739653
128	0xbb26b586	-0.0025437786
129	0xb9bb148e	-0.00035682734
130	0x3c2b0556	0.010438284
131	0xbb6d95e3	-0.003625267
132	0xbbec1a24	-0.0072052646
133	0x3c274e2d	0.01021151
134	0x3c50fe13	0.0127558885
135	0xbb513c27	-0.0031926723
136	0x3b28bbdb	0.0025746736
137	0xbade4e95	-0.0016960675
138	0x3abeabed	0.0014547087
139	0xbb990546	-0.004669818
140	0x39c4d5d6	0.00037543353
141	0x3b2932da	0.0025817663
142	0xba8566c8	-0.0010177726
143	0x3b51e859	0.003202936
144	0xbc1efa5e	-0.009703247
145	0x3bb282ab	0.0054477057
146	0xbbb89358	-0.005632799
147	0x3a256d18	0.0006310507
148	0xbb449605	-0.0029996645
149	0xbb63e846	-0.0034775897
150	0x3b8337a8	0.0040044375
151	0xbb24dbf8	-0.0025155526
152	0x3c35126c	0.011051755
153	0x3c0259b0	0.0079559535
154	0x3b909623	0.004412429
155	0xbb53a36b	-0.003229345
156	0xbacc4104	-0.0015583341
157	0x3ba04092	0.00489051
158	0xbaf73cf7	-0.0018862773
159	0xbbb76066	-0.0055962084
160	0xbb14a212	-0.002267961
161	0x3bfcedb3	0.0077187656
162	0x398e3c48	0.00027129264
163	0xbb64bb9a	-0.0034901858
164	0xbb5d8277	-0.0033799687
165	0x3b0a9b15	0.0021149565
166	0xbb368b2f	-0.0027853956
167	0x3ae2b5ae	0.0017296576
168	0x3ad2d62e	0.0016085559
169	0x3bb53271	0.0055296947
170	0x3bb43b34	0.0055002216
171	0xbaf6520b	-0.0018792761
172	0x3b3bae7a	0.0028637932
173	0xba436359	-0.00074534636
174	0xba0a0331	-0.0005264758
175	0xbba98032	-0.005172753
176	0xb91b98d1	-0.0001483888
177	0x3b04bfc9	0.0020255914
178	0x3b986caf	0.004651628
179	0x3c1300a7	0.0089723235
180	0xbb9b0faa	-0.004732092
181	0x3b96dde0	0.0046040863
182	0xbef27e8f	-0.47362182
183	0x360e494b	2.120231e-06
184	0xbb3cfeb9	-0.002883835
185	0xbe5daf8f	-0.21649002
186	0x3afb3cac	0.0019167862
187	0x3bb79c27	0.0056033316
188	0xbebe22d9	-0.37135962
189	0x3baec18a	0.0053331302
190	0xbb36294c	-0.002779561
191	0xbb46c720	-0.003033109
192	0xb9d9cfff	-0.00041544434
193	0xbb01cab6	-0.0019804663
194	0x3b5d8dab	0.0033806365
195	0xbb02b9b6	-0.0019947118
196	0xbabb6eb3	-0.0014299959
197	0xb990c580	-0.0002761297
198	0x3bb54560	0.005531952
199	0xbb9083fc	-0.004410265
200	0xbbffd84b	-0.0078077666
201	0xbb8e6fe6	-0.0043468354
202	0x3a2f42b5	0.00066856603
203	0x3b2cb0d1	0.0026350508
204	0x3b8500d6	0.0040589375
205	0x3aafbf46	0.0013408444
206	0x3b9d7f5f	0.0048064436
207	0x3c2c0e63	0.010501477
208	0xbbf92bbc	-0.0076040905
209	0xbc537d87	-0.012908346
210	0x3b0705df	0.0020602865
211	0x3af62107	0.0018778153
212	0xbacf155e	-0.0015799215
213	0xbc59e878	-0.013300054
214	0x3b1477b5	0.0022654359
215	0x3c84a3d4	0.0161914
216	0x3bd854c5	0.006601902
217	0x3b978c74	0.0046248976
218	0xbb933a02	-0.004492999
219	0xb8a4888d	-7.845564e-05
220	0xbbb05a54	-0.0053818617
221	0x3a7c5098	0.00096250465
222	0xbbc7496e	-0.0060817515
223	0xbbf69691	-0.007525273
224	0x3b4695df	0.0030301732
225	0x3c773172	0.015087472
226	0x3bf7a9f5	0.0075581023
227	0xbbf9298f	-0.007603831
228	0x3a882a97	0.0010388669
229	0xbb271941	-0.002549723
230	0xbb00b728	-0.001964042
231	0xbca193fe	-0.019723888
232	0xbb6eb56b	-0.0036424052
233	0x3c182054	0.009285051
234	0xbedbc3af	-0.42922732
235	0x3bc17abb	0.005904523
236	0xbb5fbf24	-0.0034141028
237	0x3e690666	0.22756347
238	0x3a8d691c	0.0010788771
239	0xbb1cc6a9	-0.0023922122
240	0xbf15a935	-0.58461314
241	0x3acb3257	0.0015502673
242	0x3be46080	0.0069695115

norm1.bn.weight f4 [3]
0	0x3f095372	0.5364295
1	0x3f1f05c2	0.6211816
2	0x3edfa04f	0.43676993

norm1.bn.bias f4 [3]
0	0x3d4a2c4a	0.049358644
1	0x3dde397f	0.1085081
2	0x3c41815e	0.011810629

norm1.bn.running_mean f4 [3]
0	0xbc3d420e	-0.011551393
1	0xbd599cf6	-0.053128205
2	0xbc0ca411	-0.008584038

norm1.bn.running_var f4 [3]
0	0x3c6975ad	0.0142492475
1	0x3d14e3f0	0.03635019
2	0x3d4c90ff	0.049942967
